resources/embedded/ffnn/onnx/model-1/model-ffnn.onnx (onnx, 116606 bytes, 10 tensors)

input_layer.weight f4 [32, 784]
000000 6f 1e 11 bd b6 7f a6 3c 3f 62 d7 39 84 30 18 3c
       -0.035429414 0.02032457 0.00041081195 0.009288911
000010 38 46 de 3b 18 29 12 bd 5d f4 97 bc 0d b2 c7 bc
       0.006783273 -0.03568372 -0.018549139 -0.024376893
000020 67 1d 02 bc 7c b3 8c 3d 8f b5 d2 3d 5a f0 0f 3e
       -0.00794158 0.068701714 0.10288536 0.1405653
000030 e6 5f bf 3d 6e 16 f8 3c 15 3c a0 bc 74 39 57 3d
       0.09344463 0.030284133 -0.0195599 0.052545026
000040 13 7e 81 3d ea fc e9 3d 72 8e e1 3d 34 9a 4a 3d
       0.06322875 0.11425193 0.110134974 0.049463466
000050 02 ef 28 3d a9 74 c5 bc e9 95 ec bc 1c be fb bb
       0.04124356 -0.02410348 -0.028880076 -0.007682575
000060 57 30 1a bd 32 7d ce bb f3 a1 a0 3c 39 03 e9 3b
       -0.037643757 -0.0063015455 0.019608473 0.00711098
000070 97 b3 71 bc 71 4b 1a bc fa 94 b1 3c 2e d7 aa bc
       -0.01475229 -0.009417401 0.021677483 -0.020854559
000080 63 0d ce bb d2 15 9f 3c ba 22 6b 3c 95 75 12 bc
       -0.006288217 0.019419584 0.014351541 -0.008939167
000090 57 aa 39 3d 92 b0 8e 3d 7c 03 19 3e a2 67 05 3e
       0.045328464 0.06967272 0.14942735 0.13027814
0000a0 39 93 bb 3d a2 0e 28 3d ed 6c c0 3d bd 6e 73 ba
       0.0915894 0.04102958 0.09395776 -0.00092862156
0000b0 65 a1 9a 3d f1 95 b9 3d b9 ed 1b 3e 4a d8 dc 3d
       0.07550315 0.09061802 0.15227403 0.10783441
0000c0 9c 95 ac 3c 06 23 fe bc ab ed 0e bd 5f be 27 3c
       0.021067433 -0.03102256 -0.034894627 0.010238259
0000d0 4d 00 11 bd 14 71 42 bd 6c 38 3e 3c 05 0a b1 3b
       -0.035400677 -0.04747112 0.011610132 0.0054028057
0000e0 42 2c 88 bc 15 40 48 bc 6c 5d 05 bd a6 3e 2a bd
       -0.016622666 -0.01222231 -0.032559797 -0.041563652
0000f0 ca af dd 3b d2 ea 86 3a a0 fa e2 bb 18 fc 72 3d
       0.0067653405 0.001029337 -0.0069268495 0.059322447
000100 5e 2c ca 3d 6c 36 2d 3d 3f 35 b6 3d 7f d7 58 3d
       0.098717436 0.04228823 0.08896875 0.052939888
000110 9b fc e4 3c 7b 56 22 3d 8b 43 1f 3d d2 58 cd 3c
       0.027952483 0.039633255 0.038882773 0.025066767
000120 91 4b 1a 3d 45 e0 76 3d 55 b7 75 3d 13 94 80 3d
       0.037669722 0.060272474 0.059989292 0.06278243
000130 b1 39 2d 3d a8 e3 ab 3c 96 a9 b2 3b 6c 2a 21 3c
       0.042291347 0.020982578 0.005452345 0.009836774
000140 7f 3e ef bc 11 1b b9 bc 6d 8f e1 bb 3f 5f 24 3c
       -0.029204605 -0.022595914 -0.0068835528 0.010032474
000150 59 7c cb 3c 94 cd 60 3c f7 3d 6f bc 14 2b b1 bb
       0.024839567 0.013720889 -0.014602176 -0.0054067466
000160 b6 2f a5 bc 95 36 41 39 4c 92 42 bc 9e a1 66 3d
       -0.020164352 0.00018426248 -0.0118757 0.056306474
000170 b4 f4 e9 3c 7c 82 60 3d 52 95 c8 3d bd 0b 7e 3d
       0.028559066 0.05481194 0.097941056 0.062022913
000180 6b ee 3d 3c da 16 1c 3d 52 6d 14 3d 1f e5 70 3d
       0.011592488 0.03810773 0.03623707 0.058812257
000190 03 91 03 3b f9 d3 e4 3c b8 24 90 3c 7a 38 4f 3d
       0.0020075447 0.027933108 0.017595634 0.05059097
0001a0 6d c1 2e 3d 68 dd dc bb d0 2c 58 bc ac 87 59 bc
       0.042664934 -0.006740261 -0.013194278 -0.013276976
0001b0 65 72 19 bb ab d1 2a bc 69 a8 5a bc 29 bf 81 3c
       -0.0023414132 -0.010425965 -0.013345816 0.015838223
0001c0 af 45 ad 3c a7 1d 00 bd a2 b2 ea bb 1d a4 01 bc
       0.021151392 -0.03127828 -0.007162408 -0.007912663
0001d0 1b 71 3f 3c 2c 1b 6a 3c ce 42 23 bb cc 9f 2c 3d
       0.011684681 0.014288705 -0.0024911645 0.04214458
0001e0 fd 24 7c 3d c5 d1 b7 3d 79 0a b9 3d 70 7e a0 3d
       0.061558712 0.08975557 0.090352006 0.07836616
0001f0 e9 98 af 3d e8 63 de 3c b6 9d bb 3c 5c 14 36 3c
       0.08574087 0.027147248 0.02290235 0.0111132525
000200 3d 4a 97 bb cc eb f7 3c 4a 5a e1 3c 58 5f 66 3d
       -0.004617004 0.030263804 0.027508873 0.05624327
000210 32 cf 31 3c b2 0e 0e bd 2b 60 00 bd 1b f8 48 bd
       0.010852622 -0.034681983 -0.031341713 -0.049064737
000220 85 b6 14 bc c9 1b db bc df 4d 40 3c 86 8a 0f bd
       -0.009076719 -0.026746647 0.011737316 -0.035044216
000230 0f 13 47 bc e2 77 96 bc 74 7f bb bc cc 02 a9 bc
       -0.01215054 -0.018367711 -0.022887923 -0.020631216
000240 69 fb 10 bc a2 91 8f 3c d3 4b ae bc 84 14 d6 3c
       -0.008849003 0.017525498 -0.02127639 0.02613283
000250 8b 91 75 3d be 9b d5 3d b0 87 89 3d 91 69 a4 3d
       0.059953254 0.10430096 0.067153335 0.08027948
000260 ee bf a7 3d 21 56 15 3d 87 60 70 3d b3 f3 a0 3d
       0.081909046 0.036459092 0.058685806 0.07858982
000270 54 36 56 3d 58 07 7a 3d 63 f5 3c 3c 2b 11 9a 3c
       0.052297905 0.06104216 0.011533114 0.018807014
000280 94 b6 b7 bc e2 7d 50 3c 03 84 02 bd fc 57 ae bc
       -0.022425927 0.012725325 -0.031864177 -0.021282189
000290 19 59 2d bd 8d 57 dc bc b9 e7 4a bd b7 af 2a 39
       -0.0423213 -0.026897216 -0.049537394 0.00016277922
0002a0 bb bc 7a bc 16 8c d1 bb 67 2e 2f 3b e0 87 0b bd
       -0.015303786 -0.0063948734 0.0026730539 -0.034065127
0002b0 8e 09 ac 3c 41 b9 e6 3b 15 96 02 3d ed b3 8b 3d
       0.02100065 0.007041127 0.03188141 0.068214275
0002c0 ce 02 09 3c df 8d b8 3d f3 ff c0 3d fc 1a 03 3d
       0.008362485 0.09011435 0.094238184 0.032008156
0002d0 1d 09 a2 3d 2d 23 b6 3d 57 10 a6 3d bf de 8d 3d
       0.079118945 0.08893428 0.08108585 0.06927251
0002e0 59 9c 52 3d b7 1b 59 3c 0b 46 1d 3d 9b 23 b9 3c
       0.051418636 0.013251237 0.038396876 0.022599986
0002f0 22 da 18 bc 80 55 35 bb ca b9 9e bc ca b9 2c 3c
       -0.009329351 -0.002766937 -0.0193757 0.010542342
000300 13 a6 3c 3b 07 8f 58 bd de 29 39 bd db 57 1e bd
       0.0028785511 -0.052870777 -0.045205943 -0.038658004
000310 fd bb 6d bc 85 71 a5 3c 26 6b c8 3b 05 44 00 3d
       -0.014510152 0.020195732 0.0061162887 0.03131487
000320 39 86 64 bc 89 7a 88 3c a1 3a ba 3a f3 47 80 3d
       -0.013948017 0.016659992 0.0014208147 0.06263723
000330 ad af 9b 3c 26 95 8b 3d 17 48 8a 3d 73 34 99 3d
       0.019004667 0.06815557 0.06752031 0.07480707
000340 62 63 86 3d 22 f9 89 3d 0e c2 b2 3d 52 5a 90 3d
       0.065619245 0.067369714 0.08728419 0.07048477
000350 7f 75 84 3d a8 5a c9 3c b8 e2 64 3d cc 7b 8f 3c
       0.06467723 0.024579361 0.05588028 0.017515086
000360 84 e7 cf ba 3c 16 e3 3c 9e d0 30 bd 02 88 82 3b
       -0.0015861844 0.027720563 -0.043167703 0.0039834986
000370 cd 77 d0 bc ea 26 73 bd 45 58 06 3a 15 a6 80 3c
       -0.02544775 -0.059363283 0.00051248475 0.015704194
000380 c0 84 c3 bc d0 26 02 bd e0 01 1d bd 50 93 14 3c
       -0.023867011 -0.031775296 -0.038331866 0.009068325
000390 e4 21 c9 3c c4 9e 43 3a 45 f7 67 3d 95 c1 69 3d
       0.024552293 0.00074623176 0.0566323 0.05706938
0003a0 1e 65 99 3c d2 28 d1 3c b3 41 36 3d f0 f2 11 3d
       0.018724974 0.02553216 0.04449625 0.035632074
0003b0 68 18 5e 3d 48 fb 94 3d 7a 39 99 3d 75 de 52 3d
       0.054222494 0.072744906 0.07481666 0.051481683
0003c0 af 8e f5 bb 9c 47 38 3b 82 2b 19 3d 06 81 41 bb
       -0.007493816 0.0028118854 0.037395008 -0.0029526367
0003d0 ad 17 07 3c d0 7a 09 3d c9 3c 48 bd c0 6e 3c bd
       0.008245391 0.03356439 -0.048886094 -0.046004057
0003e0 36 95 aa bc 42 45 57 bc 2e 58 8f bc 41 f5 83 b9
       -0.020823102 -0.013139071 -0.017498102 -0.00025168995
0003f0 be 79 3c 3b 17 0d 68 3c 6a 42 d3 3c 6c cd df 3c
       0.0028759087 0.014163277 0.025788505 0.027319632

input_layer.bias f4 [32]
000000 c0 75 6a bc ea 25 79 bd 04 2f 80 bd 8b dc 30 bd
       -0.0143103 -0.060827173 -0.062589675 -0.043179076
000010 47 14 1d be fe 1f 79 3c 8c 14 f4 3c 45 78 94 3d
       -0.15339766 0.015205381 0.029794954 0.07249502
000020 c4 54 00 3d 7f c5 1c 3d 0e fd c1 bc 30 bf 11 3d
       0.03133084 0.038274284 -0.023680236 0.03558272
000030 cb 48 72 3c 59 2a 0c 3c ae ed ea 3a 89 ae 76 3d
       0.014787863 0.008555018 0.0017923617 0.060225043
000040 e4 e5 5b 3d 61 ee 90 3c 75 e3 20 3b 44 95 2a bb
       0.053686038 0.017691793 0.0024549637 -0.002602891
000050 f1 d7 48 3d b0 06 71 3a c9 15 6a bd 8c 8e 7a 3c
       0.049034063 0.0009194417 -0.057149682 0.015292775
000060 2c 8c ac 3c 52 45 63 3d fa b8 ff bb e0 06 8e 3c
       0.021062933 0.05548603 -0.0078040333 0.017337263
000070 5b 92 05 bd e9 78 d4 bd df 3a 54 3d 31 03 1b bd
       -0.03261028 -0.10374624 0.051813956 -0.03784484

hidden_layers.0.weight f4 [32, 32]
000000 c1 f9 89 be 91 0e 0c 3f bf f5 91 3d 84 ef 5a bd
       -0.2694836 0.54709727 0.071269505 -0.053451076
000010 ec 5b e5 bd 7f d9 2b be ae 75 b7 3e 21 c6 63 3e
       -0.11199173 -0.16782187 0.3583197 0.22243549
000020 d1 ba e2 3e a6 5b 44 be d1 ae 56 3e 89 2c 75 3e
       0.44283155 -0.19175586 0.20965125 0.2394277
000030 c7 42 08 3d 28 92 d2 bd 38 a7 55 be 4b 38 bd 3d
       0.03326681 -0.10281783 -0.2086457 0.09239253
000040 6a e4 38 be a1 55 92 3e 8e 36 74 bd e1 1a eb 3d
       -0.18055883 0.28580955 -0.05962234 0.11479736
000050 e5 56 e4 bc e2 04 97 be 52 a5 80 bc 77 1e 7e bd
       -0.027873466 -0.29495913 -0.01570383 -0.062040772
000060 c9 eb 27 3e b7 20 8a bd ad c2 16 3e f6 11 5e bd
       0.16398539 -0.06744521 0.147227 -0.054216348
000070 7f 85 b3 bd 86 a7 30 3e 4b c0 d7 3c 5c 83 fd 3d
       -0.08765697 0.17251405 0.02633681 0.123785704
000080 31 aa 52 3d 8f 5f d2 3d a9 0f 30 3c 6b fb c0 3c
       0.05143184 0.102721326 0.010745921 0.023557385
000090 d1 14 29 bd 57 28 5c be a4 33 09 be 05 dd 8b be
       -0.041279618 -0.21499763 -0.13398606 -0.27317062
0000a0 13 5b d4 3d ae 8c 6d bb 08 e5 1b bb 87 9f 95 3e
       0.103689335 -0.0036247182 -0.0023787636 0.29223272
0000b0 03 d8 87 bc 8e 21 95 bd 25 0e 0e be 2e ad 73 be
       -0.016582495 -0.07281791 -0.13872583 -0.23796532
0000c0 ca 7b 3a 3e 60 4a 2f be 33 9a ee bd 43 66 eb 3e
       0.18211284 -0.17118216 -0.11650505 0.45976457
0000d0 ea c5 78 bd 3b 4f 7a 3e 39 dc 87 3e a9 b3 0f 3e
       -0.06073562 0.24444287 0.26535204 0.14033379
0000e0 9b 03 17 3e dc 09 7b be d1 15 9a bd dd 03 8e bd
       0.14747469 -0.2451548 -0.075236924 -0.069343306
0000f0 ef 0d eb 3c 9c 3a ae 3d 10 06 30 bd b3 b1 29 3e
       0.028693167 0.085072726 -0.04297453 0.16571693
000100 17 26 83 3e 71 cd 65 3d 99 68 fa bc a5 58 31 3e
       0.25614998 0.056104127 -0.030567454 0.17318971
000110 03 0c c0 3d 88 49 69 3e 08 c1 3b bd 1e 62 c7 3e
       0.09377291 0.22781956 -0.045838386 0.38942045
000120 c8 31 c9 3e 78 29 98 3c aa 48 86 bd fb 7a e4 be
       0.39295793 0.018574461 -0.06556828 -0.44625077
000130 0c f6 90 be 7e 0b 0f be 74 b6 56 3e 23 d8 a0 3e
       -0.2831272 -0.13969228 0.20968038 0.314149
000140 9e 47 25 3e 28 80 0c 3d 58 bd 98 bd cc e1 8e bd
       0.16140601 0.034301907 -0.074579895 -0.06976661
000150 33 01 8c bd 70 b2 57 3d 26 01 64 be ee 37 69 bd
       -0.06836166 0.052660406 -0.22266063 -0.056938104
000160 e3 22 10 be 9c f7 e0 bd 6f 80 a5 bc 29 49 10 be
       -0.14075808 -0.10984728 -0.020202843 -0.14090408
000170 7a 91 27 3e bc 61 8c bd 52 e1 81 3e f3 e4 42 be
       0.16364089 -0.06854579 0.25367218 -0.1903265
000180 09 d8 95 be d5 26 b6 3e 02 f3 3a bd 33 b3 6f be
       -0.29266384 0.355765 -0.045641907 -0.23408203
000190 fc ce db 3c f7 a6 4f be 36 c9 6e be 3a 16 1b 3d
       0.026832096 -0.20278536 -0.23318943 0.037862994
0001a0 96 90 fe 3c ed a2 85 bd d8 6c 11 bc af a0 54 3e
       0.031074803 -0.06525216 -0.008876048 0.20764421
0001b0 88 fb 26 3e cc 2a 3e be 09 ba da bd a5 4e 4d be
       0.16306889 -0.18571013 -0.10680015 -0.20049532
0001c0 8a 49 1c be c3 9c 02 be 33 32 02 3e 35 3a b8 3e
       -0.15262428 -0.12755112 0.12714462 0.35981908
0001d0 ec e8 84 3e 2c 8d 97 3b 10 59 3e 3e a7 3a 44 bd
       0.25958955 0.0046249833 0.18588662 -0.047907498
0001e0 72 a7 c1 bd fb ee 8b 3d 57 09 d1 3d fd 5f 24 3e
       -0.09455766 0.06832691 0.102068596 0.16052242
0001f0 32 0e 37 be 0f 33 7b be c0 43 a3 bd ee ec 73 3d
       -0.17876509 -0.24531196 -0.07971907 0.059552126
000200 6c 52 c6 3c b7 05 52 3c f2 e5 b1 bc 53 12 11 bd
       0.024209224 0.012818745 -0.021716092 -0.035417866
000210 a5 aa 1e be bb 35 40 3d d3 31 db bd 7d 39 46 3e
       -0.15494783 0.04692624 -0.107028626 0.19357868
000220 cb 3a a7 3d ab f0 a0 3d df a5 eb bd 4b f4 23 be
       0.08165511 0.07858404 -0.11506247 -0.16011159
000230 22 8a 23 3e b9 65 c6 3c d0 50 d1 bc 0c 83 ff bd
       0.15970662 0.024218427 -0.02555123 -0.12476167
000240 f2 19 d0 bd a6 74 36 be d9 8d f2 3c 0f 4e 1f be
       -0.10161199 -0.17817935 0.029608654 -0.1555712
000250 b7 b1 11 be be 97 26 3e db fd 35 be 8f cc cd bb
       -0.14227949 0.16268823 -0.1777262 -0.006280489
000260 63 86 cb bd b5 da 03 3d 7f 89 bd 3d 63 0a 91 3d
       -0.099377416 0.032190997 0.09254741 0.07082059
000270 dc 2f ef 3d d1 e7 54 3d 9a d3 cc bd fd 2e fb bd
       0.1167905 0.05197889 -0.10001297 -0.12264822
000280 db 50 b2 be 4d 58 34 3e b7 c4 71 3d 81 a9 2f 3e
       -0.34827313 0.17611809 0.059025493 0.17154504
000290 9b 33 ad 3e e9 e9 8e 3e 0b 0b 00 be 7d b3 84 3d
       0.33828434 0.27912834 -0.12504213 0.06479547
0002a0 40 71 a8 3e 41 e9 0e 3c 3f a2 ae 3c f1 ab 8b be
       0.32898903 0.008722604 0.0213176 -0.27279618
0002b0 f4 88 dd bd e7 70 0b 3e b9 75 2c bd c6 df 98 3e
       -0.10817137 0.13617288 -0.042104457 0.29858226
0002c0 25 79 61 3e 83 7d 7e bb ad f3 0a be 33 96 04 be
       0.22018869 -0.0038832135 -0.13569517 -0.12947921
0002d0 94 2f 27 bd 05 5d e7 bd 68 27 1c 3e 23 2e bb bc
       -0.04081686 -0.11297039 0.15249407 -0.022849148
0002e0 38 5c 24 3c a9 6f f2 3d 7c e8 a7 bc 65 ea 9d bd
       0.010031752 0.11837704 -0.0204966 -0.07710723
0002f0 ec 0b 51 bd 97 94 8a 3e 61 13 bc bb 24 57 fd bd
       -0.05103676 0.2706649 -0.005739615 -0.123701364
000300 78 12 f7 3c 74 1e b4 3d 34 8c 4b bd b8 ec 75 bd
       0.030160174 0.08794871 -0.049694255 -0.060040206
000310 92 ea 23 3e 2b 09 25 3e 33 ff 03 be df 14 59 bd
       0.1600745 0.16116779 -0.1289032 -0.05299842
000320 60 95 d6 3d 8a cb e7 bb 6a 05 79 bd 58 dc 1a be
       0.1047771 -0.0070738243 -0.06079618 -0.15123117
000330 fa 2c c8 bd 25 c7 b2 3d bd d6 75 bb 26 10 04 3e
       -0.097742036 0.0872939 -0.0037512027 0.12896785
000340 d9 72 ba 3d aa bf e1 bd 92 c2 12 be 4e cd 00 bd
       0.09103937 -0.11022885 -0.14332035 -0.031445794
000350 30 2c 34 be c9 27 80 bd 15 c1 db bd 18 ed db 3d
       -0.17594981 -0.062575884 -0.10730187 0.107385814
000360 bf 08 13 3e 07 ab e6 bd 2b dd 1c 3e d9 31 81 bc
       0.14358805 -0.112630896 0.15318744 -0.01577084
000370 ef 84 e7 3c ef 93 35 3e 9a 25 c2 bd 04 fa da 3c
       0.02826163 0.17732213 -0.09479828 0.026730545
000380 d5 0f 2e be a2 95 01 bd 79 c0 19 3e 9d 10 44 be
       -0.16998227 -0.03163684 0.15014829 -0.19146962
000390 52 86 53 be 96 d7 90 bd 75 f1 10 be 7c ef d2 bd
       -0.20656708 -0.0707237 -0.14154609 -0.10299584
0003a0 d3 6a 8b be 37 ce 2d bd 88 63 43 be 53 a1 01 be
       -0.27229938 -0.04243299 -0.19080937 -0.12659197
0003b0 db ef da 3d ad 76 04 be 7f e5 5d bc bc 64 c0 3e
       0.1069028 -0.12935896 -0.013543486 0.37576854
0003c0 18 86 1d 3e b4 24 7f 3d 7d b8 2c be a7 9a c7 bd
       0.15383184 0.062290862 -0.16867252 -0.097462945
0003d0 7c c6 27 3e e2 a8 b7 3d 52 31 45 be 02 a0 a1 3d
       0.1638431 0.08967759 -0.19257095 0.07891847
0003e0 4d 6d ad bd d4 0b a2 3e aa 8c 59 bc fe 7d 63 3d
       -0.08468113 0.3164965 -0.013278166 0.055540077
0003f0 48 55 3c be c7 f0 55 be 05 2a 02 be 52 ad e1 bb
       -0.18391907 -0.2089263 -0.12711342 -0.0068871165

hidden_layers.0.bias f4 [32]
000000 f5 0b 47 3c 0e 94 1b 3e 81 9b 36 3d 3c d7 34 be
       0.012148847 0.15193197 0.044581894 -0.1766023
000010 fd 15 01 be 61 3f d1 bd a4 38 aa bd e8 11 0d bd
       -0.12606044 -0.10217167 -0.083115846 -0.034440905
000020 81 a0 bb 3b ba df 9e 3e 15 90 14 be c9 74 bb bd
       0.0057259207 0.31030065 -0.14508088 -0.091531344
000030 48 54 9c 3e 86 80 67 3d 91 09 91 bd 68 75 d8 bd
       0.30533051 0.056519054 -0.07081903 -0.105692685
000040 7f c8 85 3e e7 b7 65 be 0b 16 88 3c 11 18 f0 bd
       0.2612953 -0.22433434 0.016612073 -0.1172334
000050 e1 8f 7e bd 00 23 2d be ae 50 6f bd a0 e5 df bd
       -0.062148932 -0.16907883 -0.05842655 -0.10932469
000060 c6 89 23 3d 26 03 56 3e 47 24 ac bd e3 32 2e bd
       0.039926313 0.20899639 -0.08405357 -0.042528998
000070 06 21 68 3e b6 88 e3 bd aa c8 07 be dc f7 3b 3e
       0.22668847 -0.1111006 -0.13260141 0.1835627

hidden_layers.1.weight f4 [32, 32]
000000 e7 68 ad be 44 4c 09 be fd 8a 46 3e 30 91 3d 3b
       -0.33869097 -0.13408 0.19388957 0.002892565
000010 76 85 4b 3e 4b 20 c7 bd c2 be f0 3d 60 75 ed bd
       0.1987513 -0.09722956 0.11755134 -0.11594653
000020 95 82 b0 3d 13 f7 9f bc f1 85 52 3d 8b 2d d7 bd
       0.086186565 -0.019526994 0.051397268 -0.105067335
000030 dd 6f 47 bd 7a 25 07 3e 94 ad 8d bd f6 9e 8f bc
       -0.048690666 0.1319789 -0.06917873 -0.017531853
000040 94 c8 af 3d 6d 19 00 be 4b 48 2d bd 83 1b f9 3d
       0.08583179 -0.12509699 -0.042305272 0.121634506
000050 28 5e 8f bd 82 56 3e bd bc 82 fd 3d bd 85 1b bd
       -0.07000381 -0.04646922 0.12378451 -0.03796934
000060 d0 27 a7 bd 5d a2 9a bd 93 fc 7b 3c 1a 59 e7 3d
       -0.081618905 -0.075504996 0.015380043 0.11296292
000070 a1 1b 24 be e6 90 41 bd 34 f5 a1 bd 05 6e 0d 3b
       -0.16026165 -0.047257327 -0.07908097 0.002158047
000080 6e 85 20 bd 79 4a 04 3e c8 05 a9 3d 8a ac 18 3c
       -0.03918975 0.12919034 0.08253056 0.00931848
000090 9e dc 1a 3c 34 0e 07 3d 69 62 1a 3e b4 8d 8b bd
       0.009452013 0.03297253 0.15076603 -0.06814137
0000a0 7a 4d 28 3e 52 ce 47 3e 75 c0 eb 3d 3d 86 b0 bd
       0.16435805 0.19512299 0.11511318 -0.08619354
0000b0 99 3b 01 bc 74 6a 7e 3e 0b 23 ae 3d 5c 68 62 bc
       -0.007887744 0.24845296 0.08502778 -0.0138188265
0000c0 e6 0b f2 bc 39 d9 dd 3d e4 a9 6d 3d 74 58 30 bd
       -0.02954669 0.108324476 0.05802335 -0.043053105
0000d0 4a 11 0b be 81 c0 96 3d 88 92 68 3d fd 6e c4 bd
       -0.13580814 0.07360936 0.056780368 -0.09591482
0000e0 26 e8 4f 3e d2 1f 4e 3e 0c fa 25 3e fc 5a 47 bd
       0.20303401 0.20129326 0.16208667 -0.048670754
0000f0 94 dc a6 3d 64 d3 64 3e ae 27 ff bd 8c 3e a6 3c
       0.08147541 0.22346264 -0.1245874 0.020293497
000100 81 b7 ed 3d 5d 90 c2 3d cd 53 e5 3c 12 65 a8 bd
       0.11607266 0.09500191 0.02799406 -0.08222403
000110 e8 8a 3f 3d 91 bf 2d 3d 54 c2 2a 3d 0c 5c 1e be
       0.04676333 0.04241902 0.041689232 -0.154648
000120 01 64 21 be 98 64 88 bd bb 10 1c 3e b6 38 90 3c
       -0.15760805 -0.06659812 0.15240757 0.017605167
000130 5a 6f 9f 3d 82 a4 47 be 16 d4 f6 bd 70 a5 07 be
       0.077849105 -0.19496349 -0.12052171 -0.13246703
000140 62 3c c8 bd 11 c3 aa bd c4 52 d8 3d 62 52 f2 3d
       -0.09777142 -0.08337987 0.10562661 0.118321195
000150 06 62 7b bc 62 8d cd 3d 89 65 8e 3d fa 71 15 be
       -0.015343195 0.10036732 0.0695296 -0.1459426
000160 3d b3 a8 3d 1d d4 36 be 8d 8a 0d 3e 60 22 f0 bc
       0.08237312 -0.17854352 0.13822384 -0.029313266
000170 67 5b 43 3e b5 32 b7 3d dd 99 33 3d a8 78 89 be
       0.19077836 0.089452185 0.043847907 -0.26849866
000180 7d 95 7f bd d4 4d 9e 3b 1a d7 93 bd c5 e1 2c bd
       -0.062398423 0.004831055 -0.07218762 -0.042207498
000190 85 a8 7a 3d 3c 3d f8 bd 7e a5 07 bc 5c b7 35 bd
       0.06119587 -0.121210545 -0.0082792025 -0.04436432
0001a0 bd 72 60 bd 06 e1 1b 3e 0c 0c 48 3b 96 8e 02 be
       -0.054796923 0.15222558 0.0030524759 -0.12749705
0001b0 20 2e e2 3d 2a 96 8f bd 3c 7f 26 be 86 b3 1b 3e
       0.11043954 -0.070110634 -0.16259474 0.15205202
0001c0 6d 7f 87 3c fc f6 9a 3d 77 a3 e1 3d f5 2f 16 3e
       0.016540254 0.0756664 0.110175066 0.14666732
0001d0 72 d3 83 bd 97 1a 82 bb 4b 43 5b bd 36 1e f2 3c
       -0.06436814 -0.003970455 -0.053530972 0.029555421
0001e0 4e 8b 02 be 53 c1 24 bb 5a 87 7c bd 11 bb 08 bc
       -0.12748453 -0.0025139644 -0.06165252 -0.008345381
0001f0 9d 14 f1 bd 48 3e 83 bd 53 17 2c be 9a a8 58 3d
       -0.1177151 -0.064083636 -0.16805772 0.052895166
000200 90 5b b3 bd d6 19 a0 bc 88 2e 22 bd 07 ce b1 bd
       -0.087576985 -0.01954357 -0.039595157 -0.08681875
000210 63 2f 34 3d 08 60 4f bd e0 ad d0 bd b6 cc 6e 3e
       0.043990504 -0.050628692 -0.10189414 0.23320279
000220 97 05 1c 3e 5a 4d 1b 3e 85 ca 24 bc f4 7a ff bd
       0.15236507 0.15166226 -0.01005805 -0.12474623
000230 3e 9f a3 3c 4d 71 9e 3d 0a 08 2f bd ac 7c 32 3d
       0.019973394 0.07736454 -0.042732276 0.043575928
000240 db 67 a0 3b 74 8f 06 3e 16 62 5a bc 1f 13 08 bd
       0.004895193 0.1314066 -0.01332905 -0.03322136
000250 37 51 f9 3c 9e ed 46 3e f8 0b 2b be f8 37 41 3e
       0.030434234 0.19426581 -0.16703784 0.18869007
000260 c5 9d 7e 3e 4c 1d 34 3e b9 c4 ae bd d6 a0 ae bd
       0.24864872 0.17589301 -0.085336156 -0.08526771
000270 56 2b 27 3e 34 69 d8 3c ce be 62 bd 3a c0 df bd
       0.16325125 0.026417352 -0.055357747 -0.10925336
000280 91 58 e1 bd 13 49 9a 3d 04 b4 dd bd f2 04 32 3e
       -0.11003221 0.07533469 -0.10825351 0.17384699
000290 f6 65 c2 3d 05 6d 3b 3e 42 3f 87 bd d3 f4 8c 3e
       0.09492104 0.18303306 -0.06603862 0.27530536
0002a0 fc 1e e3 bd 64 bc 83 bd d3 8f 21 3e 82 a7 2c be
       -0.11089894 -0.06432417 0.15777521 -0.16860774
0002b0 bb 6f 59 3e 9d b8 e7 bd 88 32 27 3e 7c 6d c8 3c
       0.21234028 -0.11314509 0.1632787 0.024466269
0002c0 13 09 cc bd bf 56 0c be 1b a9 05 3d a4 33 ce 3d
       -0.09962668 -0.13704966 0.032631975 0.100684434
0002d0 41 5a 10 be 81 15 c1 3d cc a9 aa 3d 86 c1 5b 3e
       -0.14096929 0.0942793 0.083331674 0.21460542
0002e0 28 7e 2e 3e ac 9a dd bd ca 50 28 be 12 19 09 be
       0.17040312 -0.10820517 -0.16437069 -0.1338847
0002f0 7c 17 9c 3d b2 09 21 3e 01 e7 d9 3d 3f 59 52 bd
       0.07621667 0.15726355 0.106397636 -0.051354643
000300 3d 8a 4f bd 94 24 49 be dd 1e b1 3e 3d 05 d5 bd
       -0.050668944 -0.1964286 0.3459386 -0.1040139
000310 d0 54 ae 3d b7 eb 24 bd 81 d7 cc 3d e4 ac 8f 3d
       0.085122705 -0.040263858 0.100020416 0.07015398
000320 86 b7 55 bc ef d6 c1 bd af ba 0e 3d f0 60 b2 3d
       -0.013044244 -0.094648235 0.034846004 0.087098956
000330 ac fa e3 3d 55 b2 44 3d 07 97 ca 3d f7 7e 87 bc
       0.11131796 0.048021633 0.098920874 -0.016540034
000340 fe fe e8 3e b6 32 0c 3e 31 c7 db 3d a1 b7 b3 3d
       0.45507044 0.1369122 0.10731352 0.08775259
000350 1f 07 16 bd 04 e7 86 bd 1d 73 0c 3e d3 23 b2 bd
       -0.036627885 -0.065870315 0.13715787 -0.08698239
000360 3a 21 b5 be 86 dd 0b be 1b 89 2f 3e f0 6b 14 3e
       -0.35376912 -0.13658723 0.17142145 0.144943
000370 2f 93 dd bd ac b8 28 bd c5 56 7b 3d f5 d0 5a 3e
       -0.10819089 -0.04119174 0.061362047 0.21368773
000380 43 0b 49 be a0 45 b0 bd 69 37 8e 3c 7b 7b 18 bc
       -0.19633202 -0.0860703 0.017360406 -0.009306784
000390 76 ec 05 3e c6 29 93 3a 4f 2f fd 3d 63 a8 41 3d
       0.13078484 0.0011227659 0.12362539 0.047279727
0003a0 6d e6 fe bd fc 4f 11 3e b5 12 41 bd 61 c1 9d 3d
       -0.12446294 0.14190668 -0.04713698 0.077029
0003b0 81 03 e7 bd 1a 2a 34 bd 84 3d 0e 3d b3 2a dc 3d
       -0.11279965 -0.043985464 0.034726635 0.10750332
0003c0 6e f3 8d bd 28 24 79 bd 3d 3e 9b bd 07 1f 23 be
       -0.06931196 -0.060825497 -0.075802304 -0.15929805
0003d0 47 67 06 3e 5f 6b 98 3d cf 36 2b 3d 95 06 11 3e
       0.13125335 0.074423544 0.041800316 0.14162667
0003e0 3c 20 cc 3d b1 84 58 3d 40 85 a1 bd ab 3e ef bd
       0.09967086 0.05286092 -0.078867435 -0.11681875
0003f0 a3 1d 84 3d 29 50 65 3d 29 07 0b 3e 54 51 de 3b
       0.06450965 0.05598465 0.1357695 0.0067845974

hidden_layers.1.bias f4 [32]
000000 72 e0 6a bd b9 97 8f bd a1 10 da 3d e7 ea b2 bd
       -0.057342954 -0.07011361 0.10647703 -0.0873621
000010 e2 86 ad 3d c9 14 3f be 42 c8 28 3e 80 93 90 3c
       0.084729925 -0.18660273 0.16482642 0.017648458
000020 47 10 44 3e 41 17 0b 3e 07 ff 7f 3c 49 0c a3 3c
       0.19146834 0.1358309 0.015624768 0.019903319
000030 11 0f b2 3e 4a 7b 42 3e ef a8 c7 bd 45 d7 5d 3e
       0.3477712 0.18992344 -0.097490184 0.2166415
000040 10 4d 1f bd 30 fc 22 be 96 bc 5c be e7 b8 74 ba
       -0.038891852 -0.15916514 -0.21556315 -0.0009335414
000050 a4 0d ed 3d 68 eb f3 bd 2b 81 71 bc d2 7a df 3d
       0.11574867 -0.119101346 -0.014740269 0.10912098
000060 4e 93 1d be ec 3a e7 bd 14 9e 14 3f 29 4c 7e 3d
       -0.15388224 -0.11290535 0.5805371 0.06208435
000070 ff 5e 04 3e ce dd 9d 3c b6 72 8d 3e 35 84 4d 3e
       0.12926863 0.019270804 0.2762658 0.20069964

hidden_layers.2.weight f4 [32, 32]
000000 4f 97 dc 3d 99 fc 16 3e a6 3d 99 3d 8a 13 1c 3c
       0.10771047 0.14744796 0.07482462 0.009526143
000010 6c 63 94 3c 7e e5 57 3d a3 54 89 3d 7a e6 cc 3b
       0.018113814 0.052709095 0.06705596 0.006253061
000020 ce 07 ae 3d 3d 96 a2 bc a4 40 53 3e 12 06 3f 3e
       0.084975824 -0.01984703 0.20630127 0.1865466
000030 bf 30 31 3e d6 6f 07 bb 94 f2 9f 3d 46 ae fc bd
       0.17303751 -0.0020666025 0.0780994 -0.123379275
000040 0c 1b 1f be 29 22 d9 3d d9 77 1e 3e 55 9c a5 bc
       -0.15537661 0.10602219 0.15475406 -0.020216146
000050 88 1e ca bd 95 69 01 3e ac 97 85 3d f9 25 2c 3c
       -0.098691046 0.12637933 0.0652307 0.0105071
000060 a1 79 d1 bd 3c 7c 29 be 62 9b 42 3e 22 af 53 3e
       -0.10228277 -0.16551298 0.19004586 0.20672277
000070 ff 39 f4 3e f7 db ec bd 37 b1 7d be 22 2e e5 3d
       0.47700498 -0.115653925 -0.24774633 0.1119044
000080 00 2c 40 3c 28 71 d1 3c 84 75 6b 3d af d5 15 3e
       0.01172924 0.025566652 0.05748512 0.14632295
000090 80 49 88 bc 48 4e ae bc 68 37 cc bc 52 54 21 be
       -0.01663661 -0.021277562 -0.024928764 -0.15754822
0000a0 44 4f 06 be a9 95 2f be 4e 11 b8 3d 2d fb 13 3e
       -0.13116175 -0.17146935 0.089876756 0.14451285
0000b0 96 8d c5 3d a7 1e 27 3e f4 f2 e0 bd 7e a7 e0 bd
       0.09646146 0.16320287 -0.1098384 -0.109694466
0000c0 c0 d2 34 bd b6 d5 18 be 2b 71 02 be 70 c3 df 3c
       -0.0441463 -0.14925274 -0.12738483 0.027314872
0000d0 3d 13 a8 bd 00 31 65 bb fa 56 d4 bd ac d4 8f bd
       -0.082067944 -0.0034971833 -0.10368152 -0.07022986
0000e0 fa 9d db 3d f6 ad ed bd 6d fa e1 bd 86 f2 cf bd
       0.10723491 -0.11605446 -0.11034093 -0.101536795
0000f0 e2 b6 cf bd 52 7f f4 3d b8 5e a0 bd 47 28 1a 3e
       -0.10142304 0.11938347 -0.07830566 0.15054427
000100 db 7c b0 bd 95 26 03 3e 6b 2d 21 be 22 5d a7 3d
       -0.08617564 0.12807687 -0.15739982 0.081720605
000110 32 7d 05 3e 0c 95 fa bc c9 f9 69 be 1b c1 03 3e
       0.1303604 -0.03058865 -0.22849192 0.12866633
000120 6c de fe bd fe 1f 1a be 33 83 70 3c 3c e6 96 3d
       -0.12444767 -0.15051267 0.014679718 0.073681325
000130 de 3e 57 bd df 0b 29 3d 74 dd 14 3e 2b 1e 01 be
       -0.05255019 0.041271087 0.14537603 -0.12609164
000140 c4 e6 73 3d 26 58 db 3d ef f8 2e 3e 6e 35 3f bd
       0.059546247 0.10710172 0.17087148 -0.046681814
000150 72 61 05 3c 80 34 74 3d 33 1a 9a bd 34 60 4f 3c
       0.008140909 0.05962038 -0.07524528 0.012657214
000160 1d e1 f9 3d bc 9a 81 be 23 e2 75 3e d2 f4 a5 3d
       0.1220114 -0.25313365 0.24012046 0.081033364
000170 48 31 d1 3e c7 72 99 3d d2 62 98 bd 89 dc 47 be
       0.4085791 0.07492595 -0.074407235 -0.19517721
000180 c6 ca 9d bd 70 4e 92 3d 45 e6 56 3c 04 57 46 3d
       -0.077046916 0.07143867 0.013116424 0.04842283
000190 19 86 4b bd 7c 4c 56 3d 16 75 e4 bd d3 5a ea bc
       -0.049688432 0.052319035 -0.11155145 -0.028607761
0001a0 86 93 b9 bc f2 2e c6 bd 68 47 29 3e 70 e4 00 3d
       -0.022653352 -0.09676923 0.16531146 0.031467855
0001b0 17 54 af bc 90 ac 17 3e 49 94 17 be 20 ca 0d be
       -0.021402402 0.14811921 -0.1480266 -0.13846636
0001c0 3c 40 16 be cb 23 81 bd d3 75 e5 3d fa 90 70 bd
       -0.14672941 -0.06305655 0.11204114 -0.05873201
0001d0 94 94 0c be 48 7d 2e 3e 85 3d 2d 3d d8 75 94 bd
       -0.13728553 0.17039979 0.042294998 -0.072490394
0001e0 be d7 ae 3c ac c7 c8 bd 4b 65 23 be 5f b6 15 be
       0.021343108 -0.098037094 -0.15956609 -0.1462035
0001f0 93 ab e1 3d cd 80 18 3e c6 bf a0 3d 7f e5 34 be
       0.11019053 0.14892884 0.07849078 -0.17665671
000200 f5 e2 d9 bd cc 2d e9 bd b7 b4 57 3e 4f 5c 86 bd
       -0.10638992 -0.11385688 0.21065031 -0.06560575
000210 b6 a6 32 3e 3b 11 93 3e 32 f9 b8 bd f5 f1 a0 3d
       0.17446408 0.28724083 -0.09031905 0.0785865
000220 4e ee 38 be 00 2a 79 bc e2 62 1c bd fc cb b4 3d
       -0.18059656 -0.0152077675 -0.03818024 0.088279694
000230 fc e1 4e 3e d2 93 38 3e 64 a6 6a 3c 10 71 0a 3e
       0.20203394 0.18025139 0.014321897 0.13519692
000240 8a f8 19 3e c3 7b 14 3e 2a e1 37 3e 3b 09 2c 3e
       0.15036216 0.14500336 0.17956987 0.16800396
000250 43 cb 8d 3e a1 ed 19 be 8b bd 3c bd 70 e9 9c bd
       0.2769414 -0.15032054 -0.0460792 -0.07661712
000260 04 9e 0f 3d ba f1 9e bd b5 1b 93 3e 36 87 a5 3d
       0.035062805 -0.077609494 0.28732076 0.0808243
000270 9c aa f1 3e 3b 85 23 be 2f b2 f0 be ef 6c 67 3d
       0.47200477 -0.15968792 -0.47010943 0.05650037
000280 97 f8 05 3e e3 ac 10 3d 80 5d 2d be fb f0 c5 bd
       0.13083111 0.035321128 -0.16930199 -0.09665104
000290 54 cd 32 3e cf 1d b9 bd f6 0f 10 be 6b 29 c6 3c
       0.17461139 -0.09038889 -0.14068589 0.024189672
0002a0 96 c1 c4 bd cb 45 d3 3d d4 e7 25 be 5b 96 1a 3e
       -0.09607236 0.10316046 -0.16201717 0.15096419
0002b0 8e 15 20 be 8a 2f 1b be 40 f8 c1 3b 5b af 3e bd
       -0.15633222 -0.15154853 0.0059194863 -0.04655395
0002c0 bb 60 ad 3d 39 d7 09 3e 34 59 0b 3e b7 e6 02 3e
       0.084657155 0.13461007 0.13608247 0.12783323
0002d0 32 37 8d bd eb d9 0b 3e 38 fc 29 3e 8c 7c 25 be
       -0.06895293 0.13657348 0.1660012 -0.16160792
0002e0 0d 91 98 bc 28 4c bc bd 7e 83 a0 3d 46 eb d1 bc
       -0.018623853 -0.09194213 0.0783758 -0.025624882
0002f0 83 05 11 be 92 49 f3 3d 42 89 28 be 0c bf 71 bd
       -0.14162259 0.11879267 -0.1645861 -0.059020087
000300 2e c3 cb 3d ca c6 23 be e8 cb 08 ba 02 f8 30 3e
       0.09949337 -0.15993801 -0.00052183727 0.17282107
000310 28 b4 15 3e a8 b1 98 bd 0d 9e 05 be b3 16 38 be
       0.14619505 -0.0745576 -0.13048573 -0.17977409
000320 b4 9d 7d bd 7d 8e 58 3d 60 c4 c0 bd 74 42 06 3e
       -0.061917976 0.052870262 -0.094124556 0.13111287
000330 50 c7 99 bd 04 36 30 be e5 22 0b be aa 0f 4d 3d
       -0.07508719 -0.17208105 -0.1358753 0.050063767
000340 6c 5d f9 bd 1a 92 70 bd 33 b0 2b 3e b0 67 bb bc
       -0.12176022 -0.058733083 0.16766433 -0.02287659
000350 7a 84 9e bb bb 31 2d 3e 65 6a 71 bd 06 72 cf bd
       -0.00483757 0.16913502 -0.058939356 -0.1012917
000360 3e f9 23 3e 73 d2 df bd b7 61 bd 3d 73 20 25 bc
       0.16013047 -0.10928812 0.09247153 -0.010078537
000370 a7 81 91 bd dc 22 d5 bd 9e 95 2a be e6 84 fd bd
       -0.07104807 -0.104070395 -0.16658637 -0.12378864
000380 10 d5 09 be 75 df 47 3e ee c3 91 3b bd c6 25 3e
       -0.13460183 0.19518836 0.0044484055 0.16189094
000390 f5 ae 50 3e 03 71 1a 3e 1e 7f 9f 3b a5 2a 0e 3e
       0.20379241 0.15082173 0.0048674485 0.13883455
0003a0 4a d6 5f bc 9c 24 db 3d 8c 22 8f 3d cd d7 a0 3c
       -0.01366193 0.10700342 0.06989011 0.019634152
0003b0 62 06 86 be 88 6c 25 3e ba fe 69 bd bc 93 cc 3d
       -0.26176745 0.16154683 -0.05712769 0.099891156
0003c0 3d be 8e 3e f2 cc 0a be 8a bf 31 be 92 6e f9 3d
       0.27879515 -0.13554743 -0.17358223 0.12179293
0003d0 a9 fd 84 3e e0 6f 39 be 27 91 c6 3d 52 55 f6 bd
       0.25974777 -0.18109083 0.09695654 -0.12027992
0003e0 93 7c 27 be eb 1b e2 3e 7f bb d7 bd 57 41 42 be
       -0.16356115 0.44161925 -0.10533809 -0.18970238
0003f0 11 ee ca be 18 a0 3b 3d 17 f2 df 3e 98 84 d1 bd
       -0.39634755 0.045806974 0.43739387 -0.102303684

hidden_layers.2.bias f4 [32]
000000 63 91 4a 3e 8a d6 85 bd af 38 46 be d9 5f 97 bd
       0.19782023 -0.06535061 -0.1935756 -0.07391328
000010 98 4f f5 bd b4 2b ba 3c 39 b7 cd bd 75 48 9b 3d
       -0.11978072 0.022725917 -0.100447126 0.075821795
000020 b8 b7 48 bd 41 b0 58 be 03 2f 05 3f cc 2b 74 3d
       -0.049003333 -0.21160986 0.5202486 0.05961208
000030 fd 82 01 be ac d4 0b 3f 73 ed 13 3f eb 82 d6 bd
       -0.12647624 0.54621387 0.57784194 -0.10474189
000040 14 b5 25 3e 42 ca 76 bd bf e4 67 3e da 07 d5 3d
       0.16182357 -0.06025148 0.22645853 0.10401888
000050 67 41 b1 3e 50 57 8e 3e 14 2b eb bd 20 00 88 3d
       0.3462021 0.2780099 -0.11482826 0.06640649
000060 f2 27 2e 3d 75 07 85 3c 45 99 63 3d d7 07 00 3f
       0.042518564 0.016238907 0.05556609 0.5001196
000070 cc 75 5f 3e 01 3a 8c 3e c0 24 a6 bd d4 aa cd bc
       0.2182228 0.27388003 -0.08112478 -0.025105871

output_layer.weight f4 [10, 32]
000000 5f 93 be be 0d 78 0c 3e 18 d9 6c bd 7b 46 ae bd
       -0.3722181 0.1371767 -0.057824224 -0.08509537
000010 3e d3 75 be ce 02 28 be b8 1e fa bd 93 a4 a3 3c
       -0.24006364 -0.1640732 -0.122128904 0.019975936
000020 79 cf 92 bd 8d 77 2c be 3b 7c 80 3e 50 f0 70 be
       -0.071684785 -0.1684248 0.2509478 -0.23529172
000030 9c 10 20 bd 95 b5 f1 bd 6e 58 58 be ae b0 bc 3e
       -0.03907834 -0.11802212 -0.21127483 0.36853546
000040 1d 6b b6 3e 61 a0 b7 bd d9 03 d4 3e e7 d7 03 be
       0.35628596 -0.08966137 0.41409186 -0.12875329
000050 f5 9e a5 3e 07 7d b7 be 1b 11 c0 be 27 0f 30 3e
       0.32347837 -0.35837576 -0.3751305 0.1719328
000060 55 4b da 3c c3 8a 79 bb 17 88 b7 3d 98 0f 0c 3e
       0.02664725 -0.0038077093 0.08961504 0.13677824
000070 53 d8 aa 3d 42 4f aa be ba 83 b7 3d 76 7c af be
       0.08342042 -0.33263594 0.08960672 -0.34274644
000080 a0 a1 b3 3e b0 04 3e bc 25 c9 5b be 65 ce 25 be
       0.35084248 -0.011597797 -0.2146345 -0.16192015
000090 2f 6e 9c be 81 99 83 3d b4 ba 7b 3d 3f 5c 62 be
       -0.30552813 0.06425763 0.06145735 -0.22105502
0000a0 07 e1 24 3e 9a 61 e5 3d bb 1e be be ad cd f5 3b
       0.16101466 0.11200257 -0.3713282 0.007501325
0000b0 d6 61 82 3d 84 37 6d be a2 1b b0 bd be ed 16 3d
       0.06366317 -0.23165709 -0.085990205 0.036847822
0000c0 ec 4c f9 bc db 40 c4 3e d5 a8 8c 3e 02 53 b8 be
       -0.030432187 0.3833073 0.2747256 -0.3600083
0000d0 f3 e6 71 be bd ab f5 3d 29 5a f8 bd 72 d1 0c 3e
       -0.23623256 0.11995647 -0.12126572 0.13751772
0000e0 6f 36 bd 3d 59 2f cb 3d 1d 32 5f be b0 64 e6 3e
       0.09238898 0.0992114 -0.2179646 0.44998693
0000f0 95 64 14 be a4 89 b9 be 1c cb 26 be 2a 68 ed 3e
       -0.14491494 -0.36237824 -0.16288418 0.46368533
000100 0c b9 d6 bd 00 ac aa 3c 15 08 35 3c 17 17 a4 3d
       -0.10484514 0.02083397 0.01104929 0.080122165
000110 ad 27 d3 be 19 16 00 be 72 49 af 3d 8d a7 13 3f
       -0.41241208 -0.1250843 0.085589305 0.5767754
000120 ab 3c 1b 3e 7c 25 ec 3d db e7 bc 3d a7 1c b2 3d
       0.15159862 0.11530587 0.092239104 0.08696871
000130 b6 12 bb 3d 81 0c c3 bd 34 d9 ca 3c ac f3 73 be
       0.09134428 -0.09523869 0.024761774 -0.23823422
000140 8b f7 99 3e 9f d6 82 bd 51 0a 8a 3d 52 b4 1d be
       0.30071673 -0.06388592 0.06740249 -0.15400818
000150 ad a9 79 3e 37 48 a9 3e bb 00 03 3e f6 e6 25 3e
       0.24381132 0.33062908 0.12793247 0.16201386
000160 0c 26 01 bd b5 6a 91 3c ce 1b 4a 3e 7e 94 58 be
       -0.031530425 0.017751077 0.19737169 -0.21150395
000170 f9 d2 09 be ae d8 40 bd f8 8d b6 3d f4 5b 5f be
       -0.13459386 -0.04708164 0.08913797 -0.21812421
000180 dc d6 90 bd a6 6c 99 3d 66 a5 d6 bd ea 37 53 3d
       -0.07072231 0.07491426 -0.10480766 0.051566996
000190 86 f0 df be 2d 8f cb 3b 50 6b b7 3d 2f 01 4b be
       -0.43738192 0.0062121362 0.08956015 -0.1982467
0001a0 d7 f7 ec bd 34 38 5e 3d de 34 c0 3e d4 15 00 be
       -0.11570709 0.05425282 0.37540334 -0.12508327
0001b0 c6 03 af 3d 48 5f e0 bc ad 44 db bd 18 d8 32 bc
       0.085456416 -0.027389184 -0.10706458 -0.010915779
0001c0 c0 2f 34 be 5b 1e 42 be a3 41 fd 3e df b1 f0 bc
       -0.1759634 -0.18956892 0.4946414 -0.02938169
0001d0 a9 d3 d8 3e 22 50 3b bd 54 53 f4 bd 80 80 f8 3d
       0.42348984 -0.045730717 -0.11929956 0.121338844
0001e0 23 3b 80 bc d5 b8 d3 3d b1 20 50 be fe 15 bd 3d
       -0.015653199 0.10337988 -0.20324971 0.0923271
0001f0 e6 50 33 be 39 e1 6d be 7c 08 1e 3d 8a 75 b0 3e
       -0.17511329 -0.23230447 0.03858231 0.34464675
000200 f3 9a 3f be c2 e1 2f be b0 29 17 be 83 ca 9b bd
       -0.18711452 -0.17175964 -0.14761996 -0.076069854
000210 0f 89 d6 be 5e 81 d3 3d 5f dc 41 3d ee 45 28 3f
       -0.41901442 0.10327409 0.047329303 0.65731704
000220 0d 93 92 bd f9 8a ad 3d ea 56 14 bd 8f 8c 85 3d
       -0.07156954 0.084737726 -0.0362157 0.0652095
000230 68 f6 5b bd f1 97 c0 bc 69 79 28 3e 0c 2d 2b be
       -0.05370179 -0.023509951 0.16452564 -0.16716403
000240 2a 51 fe bc 37 40 c9 bd e4 8b 2b 3e c4 3f 66 be
       -0.031044561 -0.09826701 0.16752583 -0.22485262
000250 1e 7f 11 3e 86 92 37 3e 4c 7e 44 3e 03 37 e1 3d
       0.14208648 0.17926988 0.19188803 0.10996821
000260 15 b5 2d be 8b 8b db bd 79 f1 cc 3d 74 c0 3a bd
       -0.16963609 -0.10719975 0.10006995 -0.045593694
000270 a1 36 85 bc d2 68 d0 3c a8 0f 13 3d 05 60 0c 3e
       -0.0162614 0.025440607 0.035903603 0.13708504
000280 0e b9 9a 3e cc 2c fd bd f3 1a c0 bd 8c bf 1d be
       0.3021931 -0.1236206 -0.0938014 -0.154051
000290 6c 2e 3f 3e f0 5a cd bc 88 3c c2 3c cc 85 2e bf
       0.18670052 -0.025067776 0.023710504 -0.6817291
0002a0 f8 bf 16 3e d7 73 c5 3b ae 15 d3 3e 5b a7 33 3d
       0.14721668 0.006025772 0.41227478 0.043860774
0002b0 e5 6c 0d 3e cf 18 fc 3e ac e8 15 3f 74 4d b7 bd
       0.13811071 0.49237677 0.58558154 -0.0895032
0002c0 37 3e a1 bd b4 ac ce bd 92 5c 12 bf f3 0a 89 3e
       -0.07873195 -0.10091534 -0.571725 0.26766166
0002d0 fb b6 9d be f8 ac da 3d 7c b1 24 be 95 0e ac be
       -0.30803666 0.106775224 -0.1608333 -0.33604875
0002e0 e5 fa 8d 3e af 38 d7 3d 68 d4 d8 be d6 f6 6b 3e
       0.2773048 0.105088584 -0.42349553 0.23043379
0002f0 9b 6b 03 3e 2e ef 9f 3e a3 41 14 3e ce 10 ae bd
       0.12834017 0.31237167 0.14478163 -0.08499299
000300 ee 35 48 be 54 d4 16 be b7 48 f7 bd 8c 8d bb bd
       -0.19551823 -0.14729434 -0.12074416 -0.09157857
000310 8d ad 91 be 9d f5 e2 3d 14 47 93 bd 3a af df 3e
       -0.2845272 0.11082003 -0.071912915 0.43688375
000320 0c c6 33 3e 69 a9 27 3e c2 1e 76 3d 57 db f4 bd
       0.17556018 0.16373219 0.060087927 -0.11955898
000330 b8 8b 13 be 7a 4b f4 bc 31 34 dd 3d 46 fb 01 3d
       -0.14408767 -0.029821146 0.1080097 0.031733774
000340 87 3f ab 3d 9d 9e 66 3c 90 fc a4 3e 53 40 99 be
       0.08361726 0.014075902 0.3222394 -0.29931888
000350 9b 31 9d 3e ab a6 39 3d 66 83 75 3c 0c 53 df 3d
       0.30701908 0.045324963 0.014984941 0.10904512
000360 9f 80 ea 3c 6d 9c b3 bd a0 2b 8f 3e bd b6 08 be
       0.028625784 -0.0877007 0.2796297 -0.13350959
000370 97 4a c1 bd ed 3f ce bd 3e ee e6 3d 24 8e 62 be
       -0.09438055 -0.100707866 0.1127591 -0.22124535
000380 13 9b 91 3e 48 cb cc bc ae dd cd 3e f3 a1 b8 3d
       0.28438625 -0.024999276 0.4020819 0.09015264
000390 9c f2 24 3f 30 25 89 3d d1 54 ff bd c6 af 0a bf
       0.6443269 0.06696546 -0.12467349 -0.5417446
0003a0 ea 17 ff 3d 50 48 0d be 8c 56 ec bd f9 d2 01 3f
       0.12455733 -0.13797116 -0.11539945 0.50712544
0003b0 d4 92 92 3d 3f 7d bd 3e 92 e7 d1 be 89 a5 07 be
       0.071569115 0.37009618 -0.40996987 -0.1324674
0003c0 5a 6e f4 bd 75 1b 34 3e af 0f a8 be bc 6a 8c 3e
       -0.119351104 0.17588599 -0.32824466 0.27425182
0003d0 d3 66 25 bf c4 34 5a 3e 96 7c 22 be e4 f7 ae be
       -0.6461002 0.21309191 -0.15867838 -0.341735
0003e0 cd 13 fa 3d 41 64 aa bd c9 50 57 be 2c 46 40 3e
       0.12210808 -0.08319903 -0.21026911 0.18776768
0003f0 32 09 53 be fe 10 9b 3e d0 5d 13 bd 56 9e 0d be
       -0.20608976 0.30286402 -0.03597814 -0.13829932

output_layer.bias f4 [10]
000000 d3 bc 9a 3d fa 3c 9e bd 9e 3b 4c be b2 5c 62 3e
       0.075555466 -0.07726474 -0.19944617 0.22105673
000010 2e 17 9b be 2b a5 72 3f 44 66 19 3e dd ac 9e be
       -0.30291122 0.94783276 0.14980417 -0.3099126
000020 95 f3 09 3e 91 39 1b bf
       0.13471825 -0.60634714
